model/model.pth (torch, 19264 bytes, 4 tensors)

linear1.weight f4 [256, 12]
00000000: dea4 da3d f376 de3d 7c04 b8be 0217 d7be
00000010: 5969 0abe 78c7 acbe 087d 81be 379b 7b3d
00000020: a2e7 2a3e 703c a1be 6b18 f2be 28e0 1bbf
00000030: 3ddd 6dbe 2384 143e e9e3 9bbd bbfc 76bd
00000040: 3d62 153e 7623 63be 81ba 42be 5e8f 353e
00000050: 8678 82bd f0ab f8bc 42e9 6fbd d589 16be
00000060: f04c 6cbe 741a 583f 450c c9be bfd3 873f
00000070: 3abf 6d3e 454a 08bf caa7 85be c9a1 65be
00000080: f3ff 513f 22c1 93bf d707 23bf 2fd1 543f
00000090: da27 103f 617b 5e3f bbb8 883e 7937 93be
000000a0: 07f3 83be 16ce 3bbe c722 8ebe 4fc3 32bd
000000b0: 1d7c 0a40 71d2 443f 6f58 02bf 22eb fd3d
000000c0: e5b5 163d 6963 053e abbb 2f3d 4f6c 5e3e
000000d0: 77d9 e7bd 4182 9fbe 6ff9 cbbc b104 fe3b
000000e0: 7db5 0fbe d1a9 34bd a2b3 f7bd f956 33bd
000000f0: 6d80 81be 7bef 4b3e 0c99 a13c 7b13 d23d
00000100: e405 0bbe 3bc0 c4be 2d69 d83d a896 12be
00000110: b958 bdbd 1a5a 7abe fb79 16be 9301 293d
00000120: 3540 a4bd 43ef 81be 04fa f8bb ca9b 92be
00000130: 98b9 3f3d 62cb c63b 45dc c13d d5e4 04bd
00000140: 643e e13d 2344 41be f789 9c3d a059 b5bd
00000150: b2c5 d4be 57b7 3dbf c932 c63e 1911 0d3f
00000160: bea1 5cbc a482 a6be 3229 8cbe 5749 233e
00000170: e850 8e3e 9e83 f0be 5640 293f ef2b debc
00000180: 11d8 85be 9b40 1d3e 0681 da3e b591 4fbe
00000190: 7c5f 203d 3da3 25be e1ea 533e b5e7 3c3e
000001a0: bad1 f6be 5196 3bbf 1aca 7dbe b16f 6bbd
000001b0: 531b 56bc df46 713e 1b30 78be 711f dcbd
000001c0: d4ad 0b3d f3ad 87bd 55b2 59be 4280 793d
000001d0: 1dde 47bd f80c 82be 80e4 753b 726e 0c3c
000001e0: d34f 0e3d bff6 98be 7b5f 0a3d 96d7 8dbe
000001f0: d35b 313e 5d8c 2fbd 51d8 303e 1d28 86bc
00000200: ac8a 0f3e 37c3 1bbb 767c 673d dfb4 1a3d
00000210: 5353 78be c79c 3bbd 380e 31bd ef42 18be
00000220: 61a2 e5bd 0e6f 11bc b787 e3bb 68de 16be
00000230: a221 2f3d 2b26 c83d 5249 4c3e 1a1f 61bd
00000240: 6202 693e d08f 1f3b 92bf e5bd 79c0 a2bd
00000250: 2e58 553e 48b9 6d3d 144f e2bb 7176 8ebd
00000260: c431 56be 34b3 5bbe 5584 60be 023d adbe
00000270: b63c 02bf 4d69 c4bf 0d9c a0bf 5f01 26bf
00000280: 5a75 393d 79c4 113f 4711 a83d 9e24 593d
00000290: 47ac c3bf b9ee cdbf ce16 afbe 448f fbbe
000002a0: 680f 7b3e d7ee 16be 6e9f a6bc ba08 c0bd
000002b0: 2adc f8bd 775c 60be b194 d4bd 9644 7cbe
000002c0: 4f79 92be 7f91 05bd 0649 b8bb 83c2 18be
000002d0: 13ec 91be a479 283e 8b71 91be 884b 94be
000002e0: c933 0fbe e807 06be 473f 67be 31d8 3f3e
000002f0: d4b3 66be 2caa 6e3d f0ec 8ebe f626 febd
00000300: e36a a13f 29da cd3c 10a8 823f 704c 6fbe
00000310: 6a40 82bd 6849 3bbf 34cb 28bd 4ef3 843e
00000320: 37cb 88bf 7c24 a73f 2b98 853f b02e 443e
00000330: 5eaa 2abc b9cc ecbc 4b12 fdbd 86b6 13bc
00000340: 667c 17bd 1a75 20be dc9a 4dbc 3ea6 e33d
00000350: 6bb6 10be e6f4 80be f037 76be c092 5fbe
00000360: 6d11 03be ee2e 07be 8f22 0abe 7f59 37be
00000370: a6d8 783d 5542 7e3d 5573 093e 04c2 573e
00000380: 30d1 173e 141d 383d b2c7 553d e164 57bd
00000390: 5ba6 3bbe 6932 63be 668c f03d bed1 afbc
000003a0: d53a 5c3d e1f7 85be 97ca c1bd 5033 6fbe
000003b0: 69d0 1b3d de8f f23c d4ed 923d 1800 89be
000003c0: 1b2c 913e d6dd b63a ba0e 96be aae9 a4be
000003d0: 6327 9bbb ab63 a2be 9bd3 efbd 8d7f 91be
000003e0: 591a 5cbc 8494 93be d06b 13bd 0146 adbe
000003f0: 3ed1 6ebf 7855 c63e 6e36 dcbd 2279 55bf
0.10675977 0.108625315 -0.3594092 -0.4200974 -0.1351675 -0.33745933 -0.25290704 0.06142732
0.16689923 -0.31491423 -0.47284254 -0.6088891 -0.23228927 0.14503531 -0.0761183 -0.060299616
0.14588256 -0.22181496 -0.19016458 0.17730471 -0.06370644 -0.030355424 -0.05857206 -0.14701016
-0.23076224 0.84415364 -0.39267173 1.0611495 0.23217478 -0.53238326 -0.26104575 -0.22424997
0.8203117 -1.1543314 -0.6368384 0.8313169 0.5631081 0.8690701 0.26703438 -0.2875326
-0.25771353 -0.18340334 -0.27760908 -0.043643292 2.1638253 0.7688361 -0.5091619 0.12398364
0.036794562 0.13026203 0.042903583 0.21721004 -0.11320775 -0.31154063 -0.024899213 0.007752024
-0.14034076 -0.044107262 -0.12094809 -0.043784115 -0.25293294 0.19915573 0.019726299 0.10257622
-0.13576466 -0.3842791 0.10566936 -0.14315283 -0.09245438 -0.24448434 -0.1469497 0.041261267
-0.08020059 -0.25377855 -0.0075981636 -0.28634483 0.046807855 0.0060667256 0.09465841 -0.032444794
0.10998228 -0.18873648 0.07643502 -0.08854985 -0.4155708 -0.7410788 0.3871062 0.55104214
-0.013466297 -0.32521546 -0.2737518 0.15945946 0.27796102 -0.46975416 0.66113794 -0.027120559
-0.26141408 0.15356676 0.42676562 -0.20270427 0.03915356 -0.16175552 0.20695068 0.18447764
-0.48206884 -0.7327624 -0.24784127 -0.057479564 -0.013068038 0.23562191 -0.24237101 -0.107481845
0.034101322 -0.06624975 -0.21259435 0.06091333 -0.048795808 -0.2540052 0.003752023 0.008571254
0.034744095 -0.29875752 0.033782464 -0.27703542 0.17320184 -0.04285847 0.17270018 -0.01637655
0.14017743 -0.002376748 0.05651518 0.03777015 -0.24250536 -0.04580381 -0.04322645 -0.14869283
-0.11212612 -0.008876575 -0.0069436687 -0.14733279 0.042756684 0.09772905 0.19949844 -0.0549613
0.22754815 0.0024347194 -0.1121818 -0.079468675 0.20834419 0.058038026 -0.0069063995 -0.06956185
-0.20917422 -0.2145508 -0.2192548 -0.33835608 -0.5087389 -1.5344635 -1.2547623 -0.6484584
0.04527793 0.5694042 0.082064204 0.053013436 -1.528695 -1.6088477 -0.34197086 -0.4913274
0.24517596 -0.14739548 -0.020339694 -0.093766645 -0.12151368 -0.21910273 -0.10379923 -0.24635538
-0.28608176 -0.03260946 -0.0056239394 -0.1491795 -0.28500423 0.16452652 -0.2840694 -0.28963876
-0.13984598 -0.13088953 -0.22582732 0.18734814 -0.22529536 0.058267757 -0.27915144 -0.12409775
1.2610744 0.025128441 1.0207539 -0.23369002 -0.06359942 -0.73158884 -0.041209415 0.25966877
-1.0687016 1.3058009 1.0437063 0.19158435 -0.010416595 -0.028906213 -0.12357005 -0.009015685
-0.03698387 -0.1566967 -0.012549128 0.111156926 -0.14132087 -0.25186843 -0.24044776 -0.21833324
-0.12799616 -0.13201496 -0.13489746 -0.17905234 0.060753487 0.062074978 0.13422902 0.21070105
0.14825892 0.044949606 0.052192397 -0.05258644 -0.18325178 -0.22187199 0.11745529 -0.021462318
0.053767044 -0.2616568 -0.09462469 -0.23359418 0.038040552 0.029609617 0.07174268 -0.26757884
0.28353962 0.001395161 -0.2930811 -0.32209522 -0.00473492 -0.31716666 -0.117102824 -0.28417626
-0.013434016 -0.28824246 -0.03599149 -0.3384247 -0.9328803 0.38737082 -0.10752569 -0.8338796

linear1.bias f4 [256]
00000000: c7f4 1cbe 19c1 8ebd 99ce 01bf b3e1 e4be
00000010: 5513 07be e07a cbbc b03b 48be 9a5b 0dbf
00000020: 2fda cbbe 39eb 8dbe b8d4 72be 1985 94be
00000030: c0fc 11be 753b 723f c574 16bd 25c5 53be
00000040: 885c 25bf 5aa2 363e 4cf5 b2be 4ae0 5bbc
00000050: 79e9 b4bd 6f46 ec3e ec63 42bf 8c3d 9bbe
00000060: d1fe 06bd b443 b2bd 0f87 06be 3382 aa3c
00000070: 3d4a a1bd 0baf 83be 97d2 a4be b0b2 b9be
00000080: 6e5d 483d f3e7 a63d a13d a0be 3826 a0be
00000090: 0f96 4bbe 88b6 15bf 7c7a 1cbe 326f 15be
000000a0: 7352 c4be 80ef 6fbd e9f5 b5be 47ba 8fbd
000000b0: d4ff 2dbe 8f77 04bf 69ec 92be 2a17 f7bd
000000c0: c0b2 62be 20e1 20be ff6f 1ebe 8e94 87be
000000d0: f715 8ebe fb44 7ebe 0f21 9fbc 3060 243f
000000e0: 4d70 99bd 3e18 06be ec21 70be 360d 07be
000000f0: 8bae 9fbd 2887 3d3e f22a 91be 8a49 6bbe
00000100: 0869 eabc 30bb a0be 5280 6bbe e0ec b8be
00000110: 0fa5 603e c998 0ebf ec22 65bd 67b8 92be
00000120: 2cc2 40be fa65 30bf 5569 a2be 4ace dabe
00000130: aded 87be 3822 6ebe de53 cb3d a05a 17bf
00000140: 3ef1 58be bb9d acbe 93ee bd3d 5645 963f
00000150: a1a7 01bf d050 18bf a1eb 11be 40c7 28be
00000160: ed71 223e eb81 0ebe f812 53bd 76f5 8bbe
00000170: ea67 05be df70 96be 133a 68be 27a2 9ebe
00000180: eb6e 99be 249f 8ebe c17f 88be 4bf0 84be
00000190: dbc2 e2be 069b 86be 181a 9bbb f7db 8ebe
000001a0: 821b 38be 3d1e 5bbe f4a0 8a3c fb75 233e
000001b0: 9436 64be c9e2 2cbe 2d63 c3be fa30 d33c
000001c0: d421 02be e905 1bbe fd51 79be 8338 acbd
000001d0: ef74 06be ea2f 9ebe 9d45 9c3f 7c88 523f
000001e0: 6517 68be aedf 40bd 8817 90bd 2ac9 cdbd
000001f0: 662d 06bd eb43 05bf 6917 90be f3ad 27be
00000200: 283e 2cbd c8b6 55be 9029 36bf 686e 863d
00000210: b8dc 90bd 21c2 1fbe b2bf bbbe f05f fcbe
00000220: 0ff0 21bf d114 013f c4c1 5dbb 4c3a 90bd
00000230: 1b4b 07be f262 e6be fa1b e2be 26b9 efbe
00000240: 3372 97be 386f 6cbc 9d00 3abf 5ce2 16be
00000250: ed85 84be 7489 243e 1ba9 6f3d 8310 3bbe
00000260: 5e6c 88be 89f2 1c3e 95d7 b8be e14b 0abf
00000270: 3814 0dbf b9ee a0be 55f3 9dbe 796f 10be
00000280: c76f 88be 97d9 66be 2e33 a9be 9f5a 2cbf
00000290: 8d43 9abe 0bf1 83be a20e bcbd 67a9 37bf
000002a0: 05a6 babe a34d ac3b c8da 79be 9f6c 9bbd
000002b0: 17a9 63bf 7352 5bbf 4107 2abf f022 0cbd
000002c0: fa05 f5bc 1e9f 1fbe ca2f 3fbc a8d8 2dbd
000002d0: 649a 99be a717 2dbe 346a 6d3e 80a0 a63e
000002e0: 5f56 08be 3cdc 91bf bb59 c0be 804f 4dbe
000002f0: d5e8 13bf 083d 06bf 6244 d83d 4949 e8be
00000300: e1de 97be 6bed c0bc 03ee 82be 0ecc 013e
00000310: 141f 0cbd 021d efbe b153 32bf 8e03 39be
00000320: 17d2 8cbe 7be2 8e3d d384 8fbe f70c 3fbe
00000330: a8c9 80be b167 86be 9c06 4c3c 0538 3cbe
00000340: 3a64 e0be 5c48 6fbd 16b2 adbc 5e31 0bbe
00000350: 6c92 8bbe 540b 233e 8118 103f de79 eabd
00000360: cf2b 163d ae1a 9fbe 2bf2 e1bd 5cbd d5bd
00000370: e477 283c 4439 09bd e67d 1abc d298 2ebe
00000380: 1154 7ebe 19f3 a7be d124 1bbe 8939 3bbe
00000390: 6d80 a5bd edc9 03bf bf8f 9dbe 4b98 aebd
000003a0: 60a0 04bf 39f6 56bf 0ce7 17be 7138 c5be
000003b0: dde1 0fbd ecdf b43c 0d36 25be 78f9 213d
000003c0: c8b3 143f e45c 3bbf 0f36 a2be 031f 193d
000003d0: 0515 0fbf ee81 f83d d495 a5be 5ea6 f43d
000003e0: c8bf 75be f8d6 863f a34c bc3d ad76 8f3e
000003f0: 1313 813e 655e b03f b1ee 3d3e 4d11 bbbd
-0.1532775 -0.06970424 -0.5070587 -0.44703445 -0.13190968 -0.024838865 -0.19554019 -0.552179
-0.39814898 -0.27718523 -0.23713958 -0.29007795 -0.14256573 0.94621974 -0.036732454 -0.20680673
-0.64594316 0.1783537 -0.34952772 -0.013420174 -0.08833594 0.46147487 -0.7593372 -0.30320394
-0.032957856 -0.087043196 -0.13137458 0.020814037 -0.07875488 -0.25719485 -0.32191917 -0.3626914
0.048917226 0.081497096 -0.3129702 -0.3127916 -0.19881462 -0.58481646 -0.15281099 -0.14593199
-0.38344154 -0.058578014 -0.35539177 -0.070179515 -0.16992122 -0.5174493 -0.28695992 -0.12064965
-0.221385 -0.15710878 -0.1547241 -0.26480526 -0.27751133 -0.24831001 -0.019424943 0.6420927
-0.07492123 -0.13095185 -0.2345044 -0.13188633 -0.07796963 0.1850859 -0.28353077 -0.22977272
-0.028614536 -0.31392813 -0.22998169 -0.3611822 0.21937965 -0.5570188 -0.055941507 -0.28656313
-0.1882407 -0.68905604 -0.31720987 -0.4273551 -0.2654852 -0.23255241 0.09928106 -0.5912266
-0.21185777 -0.3371409 0.0927402 1.173991 -0.50646406 -0.5949831 -0.14250042 -0.16482258
0.15863772 -0.13916747 -0.051531762 -0.2733571 -0.13027921 -0.2938299 -0.22678404 -0.30983087
-0.29967436 -0.2785579 -0.26659968 -0.2596458 -0.44289288 -0.26290148 -0.004733335 -0.27902195
-0.17979243 -0.21398254 0.016922452 0.15962975 -0.22286445 -0.16883387 -0.38161603 0.02578019
-0.12708217 -0.15138973 -0.24347682 -0.08409216 -0.13130544 -0.3089593 1.2208744 0.8223951
-0.22665174 -0.047088318 -0.07035738 -0.100481346 -0.03275814 -0.5205676 -0.2814286 -0.1637495
-0.042051464 -0.20870507 -0.7115717 0.06564027 -0.07073349 -0.15601398 -0.3666969 -0.49291945
-0.63256925 0.5042239 -0.0033837417 -0.07042369 -0.13212244 -0.44997364 -0.4416197 -0.46820945
-0.29579315 -0.0144308135 -0.72657186 -0.14734787 -0.25883427 0.16068059 0.05851088 -0.18268017
-0.26645178 0.15326895 -0.36101976 -0.5402203 -0.55108976 -0.3143213 -0.3084971 -0.14105023
-0.2664778 -0.22543941 -0.3304686 -0.67325777 -0.30129662 -0.2576984 -0.091824785 -0.7174286
-0.36454788 0.0052582785 -0.24399865 -0.07589077 -0.88929886 -0.8567268 -0.6641732 -0.034213006
-0.029910076 -0.15588042 -0.011669109 -0.042442948 -0.30000603 -0.16903554 0.23185045 0.32544327
-0.13314198 -1.1395335 -0.3756846 -0.20049858 -0.5777715 -0.52436876 0.10559918 -0.45368412
-0.2966223 -0.02355071 -0.25572214 0.12675497 -0.034209326 -0.4670182 -0.6965895 -0.18067762
-0.27504036 0.069767915 -0.28031024 -0.1865729 -0.25153852 -0.26250985 0.012452748 -0.18380745
-0.43826467 -0.058418617 -0.021203082 -0.13593051 -0.2726015 0.1592229 0.5628739 -0.114490256
0.036662873 -0.31075042 -0.11032518 -0.10436508 0.01028249 -0.03350188 -0.009429431 -0.17050484
-0.24836756 -0.32802656 -0.15150763 -0.18283667 -0.08081136 -0.5147999 -0.30773732 -0.08525141
-0.5180721 -0.83969456 -0.14834231 -0.38519624 -0.03512751 0.02207943 -0.161339 0.039544553
0.58086824 -0.73188615 -0.31681868 0.03738309 -0.5589145 0.12134157 -0.32340872 0.119457945
-0.2399894 1.0534353 0.09194305 0.2802023 0.25209865 1.3778807 0.18548085 -0.09134159

linear2.weight f4 [4, 256]
00000000: 6390 e83b aa8d 753d 4648 a7be edf8 a13e
00000010: b834 78bd 48f0 39bd 9704 853c 4e7d b9bd
00000020: 90aa 57bd 0e9a 423d fcc2 60bc 8936 f33b
00000030: 5a43 5c3d a99f c0ba 6ef8 1cbd 92a7 4cbd
00000040: ba19 683e b6a7 8f3b 44a8 0c3d d14e 1ebc
00000050: 1093 91bc c337 4e3b bdf7 1cbf 940a 49bd
00000060: b3b8 12bd 80a7 af3c bee9 a1bc 87c5 b6b9
00000070: 4ea7 84bc 6482 3f3c 7ee7 cdbb 491e 7fbd
00000080: 5c4d 103d 0d3a 843e f9aa bc3d 5715 27bf
00000090: 96dc 243c 446c 1b3f bd00 753d cc20 0e3d
000000a0: 1ed2 cebd 9539 bfbc de78 e8bc a1f3 643f
000000b0: 1663 073d 9886 2ebd 9f9d d3bd f8dc b73c
000000c0: f059 2ebc 2005 87be a21b 0fbd 7052 c4bc
000000d0: 78d5 1d3c 822c cbbb c89b dbba 8784 8d3d
000000e0: a633 28bd cbb7 4bbc 2b66 673e 6f22 8abd
000000f0: 2e61 e13c 220f 89be b97e 6abd bf18 57bc
00000100: c63c 883c fadc 813d efff 12bd e28d 89ba
00000110: 2246 2b3c 74b8 1a3c 2cbd fa39 2585 323c
00000120: 0275 42bd 80d8 8f3e 637c 683e d2c9 bebc
00000130: c6b8 603b 2ec0 40be 0d87 5bbd b6c4 013f
00000140: 1a68 ca3a b887 8e38 1906 093c 67ef ac3e
00000150: 92f2 1e3c d679 8f3d 1872 9ebd e5a5 813d
00000160: 3316 80ba 6a73 6a3d c28f 9bbd 633d 0abc
00000170: b27b 4abe d98c fcbc 905a 6cbd 0781 f7bc
00000180: 42b2 5bbd 6484 89bc e68b 14bd 3932 cd3f
00000190: de6d e23d 830e da3b 02d8 04bc 8600 323d
000001a0: b282 863d b5c8 c8ba 07de e03c e4db 9a3e
000001b0: 42fa 9d3b 36c0 83bd bc9b 38bc a735 1c3d
000001c0: 7a90 82bb 859f b83d 87b2 893b f516 a13c
000001d0: b065 dc3c c245 ab3b 0e9f 0d3f 6328 27bf
000001e0: 5ebc 183d db85 e33c 1322 b13c 15cd 3c3d
000001f0: 0f9b 843c cd37 4a3f b1dc a339 10f5 8d3b
00000200: 8b8f a53e e10d e8bc 3f5e 00bd bc87 bc3c
00000210: 7f11 5abd 27fd 1d3d 1ee1 62bd d9f6 d4be
00000220: ae01 c83b 837d d6be eaf9 0b3e 5f9f d03d
00000230: caf4 53bb f4e1 9a3d 6883 b33c ff40 e0bd
00000240: 8138 663d d35e a1be cd2a b5be b76d 2fbc
00000250: eb22 a33d 44a1 693d 1bc5 b4be ab66 91bc
00000260: 30e7 8cbd ca7a ae3e f129 69bf 3d0b 48bf
00000270: f429 d1bc e032 0ebc dc79 803d 1ff5 95bc
00000280: b72c 2f3e 460d 34bd 2b63 7cb9 d11f 7e3e
00000290: 2a2b d2be 5133 b5b9 6fa0 533e fe96 b8bc
000002a0: 5de9 41bd 0d5f c8bc a1f6 123c 81a1 853d
000002b0: 4481 423d 830e 613c 5687 753d 89d2 413e
000002c0: 57f7 b33c 7676 793f 64b9 133d 9bb3 353e
000002d0: 0bb5 313e 1f72 713b bc62 f3be ee4a be3e
000002e0: 512f a23c c908 fc3d c78f 8c3e b4d0 54bd
000002f0: ebf7 b5be f369 3e3f ce35 c5bc 0d6e 8fbb
00000300: d31a e83b a986 debb 271a 85bc f7b5 81bc
00000310: 6a12 40bc 9213 b0bb 0e4a 353d 99f6 b0bc
00000320: 04fa f0be e9c4 21bd b855 803d fc7c 9a3d
00000330: 9432 86bb 18a5 393c a783 1c3d 01fe debc
00000340: 07f2 66bd 2ba7 113f 16d9 223e 0988 89bd
00000350: 8e1b e93c d872 bfbc b5cc 9c3e 4e10 d0be
00000360: 2dd3 62bc 564c ddbc caef 5abd 868f 5f3d
00000370: e98b adbd f0c6 063d 9467 2abb 0e7b 97bd
00000380: d670 6fbc 2b52 523b aa15 313d edb3 fdbd
00000390: cc8d df3c 67c7 c3be 7267 fa3c 3230 56bd
000003a0: f301 1f3e 4e8c 0ebe 0a39 eebc 6a2f d03e
000003b0: 3308 6e3d 7ace 89bd 3e7e a1bd c170 1f3b
000003c0: 842b 933c 0f46 583e 5f73 b83e ffae f93d
000003d0: d49e a3bc 77b7 b73b 4f6f 283d 1eb4 443b
000003e0: c04f 8abb 0e93 353e 0aae 8c3b 5f01 9bbb
000003f0: cd4d 2cbf 0f98 15bf fd9a eebd e40b c8b7
0.0070972904 0.059949555 -0.32672328 0.31635228 -0.06059715 -0.045395166 0.01623754 -0.09057103
-0.052652895 0.0475102 -0.013718363 0.0074222726 0.05377517 -0.001469602 -0.03832286 -0.049964495
0.22666064 0.0043840064 0.034340158 -0.009662346 -0.01777032 0.0031466342 -0.6131552 -0.049082354
-0.035820674 0.021442175 -0.019764777 -0.00034860914 -0.016193058 0.011688802 -0.0062836995 -0.06228474
0.035230026 0.2582554 0.09212298 -0.65266937 0.010062357 0.60712075 0.059815157 0.034699246
-0.100986704 -0.023342887 -0.028377946 0.8943425 0.03305348 -0.042608827 -0.10332798 0.022444233
-0.01064156 -0.26371098 -0.034938462 -0.02396509 0.009633414 -0.006200374 -0.00167548 0.06910043
-0.04106488 -0.012433956 0.22597568 -0.06744849 0.02751216 -0.26769358 -0.05724976 -0.0131284585
0.016630542 0.06340976 -0.03588861 -0.0010494555 0.010453733 0.009443391 0.0004782466 0.010896002
-0.04747487 0.28094864 0.227037 -0.023289595 0.003428982 -0.1882331 -0.05359559 0.5069078
0.0015442402 6.796367e-05 0.00836327 0.337764 0.009701388 0.0700566 -0.077366054 0.0633047
-0.0009772241 0.057238974 -0.07595779 -0.008437487 -0.19773749 -0.03082888 -0.057703555 -0.030212892
-0.053636797 -0.016786762 -0.03626623 1.6030952 0.11056112 0.006654562 -0.008108141 0.04345753
0.06567897 -0.0015318604 0.02744962 0.30245888 0.004821093 -0.06433146 -0.011267599 0.038137104
-0.003984508 0.09014801 0.0042021903 0.019664267 0.026903957 0.0052268216 0.55320823 -0.65296
0.037289016 0.027773788 0.021622693 0.04609402 0.016187219 0.78991395 0.0003125421 0.0043321922
0.32336077 -0.02832693 -0.03133988 0.023013942 -0.05323934 0.038571503 -0.05539047 -0.4159458
0.006103716 -0.41892633 0.13669553 0.101866476 -0.003234195 0.075626284 0.021913245 -0.10949897
0.05620623 -0.31517658 -0.35384217 -0.01070731 0.079656444 0.05703856 -0.3530663 -0.017749151
-0.06880033 0.34078056 -0.9107962 -0.7814215 -0.0255327 -0.008679122 0.06273243 -0.01830536
0.17106901 -0.04395797 -0.00024069536 0.24816824 -0.41048557 -0.00034561244 0.2066667 -0.022532936
-0.047341693 -0.024459386 0.008969934 0.06524945 0.04748656 0.01373637 0.05994352 0.18927969
0.021968527 0.9744638 0.036065474 0.17744295 0.17354219 0.0036841703 -0.47536266 0.37166542
0.019797953 0.12306363 0.27453443 -0.051956847 -0.3554071 0.74380416 -0.024073508 -0.0043771327
0.007083276 -0.006790955 -0.016247822 -0.015833838 -0.01172314 -0.0053734267 0.044260077 -0.021601962
-0.47065747 -0.03949443 0.062663496 0.0754337 -0.004095385 0.011330865 0.03821149 -0.027220728
-0.05638316 0.56895703 0.15903124 -0.067154 0.028455522 -0.023370191 0.3062493 -0.4063744
-0.013844294 -0.027013939 -0.053451337 0.054580234 -0.08473951 0.032904565 -0.0026001679 -0.07396518
-0.0146143045 0.0032092433 0.04323355 -0.12387834 0.027289294 -0.3823807 0.030566905 -0.052292056
0.15528087 -0.1392071 -0.029079933 0.40661174 0.058113288 -0.067288354 -0.07885407 0.0024328681
0.017965086 0.21120475 0.3602552 0.12191581 -0.019973196 0.0056065875 0.041121777 0.0030014585
-0.0042209327 0.17731878 0.004293208 -0.004730388 -0.67306215 -0.5843515 -0.116506554 -2.3847395e-05

linear2.bias f4 [4]
00000000: 385c 9a3a 3dce ae3e f770 263e c552 12be
0.0011776751 0.34141722 0.1625403 -0.14289387
