model/model.pth (torch, 19264 bytes, 4 tensors)

linear1.weight f4 [256, 12]
00000000: 4efc 413d 429b 5d3e 857c 61be df05 eb3d
00000010: 5969 0abe def0 1abe 087d 81be 379b 7b3d
00000020: 3252 a23d 86f5 8a3d df25 213e 3c64 8ebe
00000030: 3ddd 6dbe 2384 143e e9e3 9bbd bbfc 76bd
00000040: 3d62 153e 7623 63be 81ba 42be 5e8f 353e
00000050: 8678 82bd f0ab f8bc 42e9 6fbd d589 16be
00000060: 96d2 c8bd a47e 673e 2411 65be 781f 8e3e
00000070: 3abf 6d3e eedb 303e caa7 85be c9a1 65be
00000080: 8251 3f3e 1735 18be 6138 ae3c 6f2a 363e
00000090: 6b3b 4b3e 62bf 923e ee01 393e 7843 cd3c
000000a0: 07f3 83be a7fc 163e c722 8ebe 4fc3 32bd
000000b0: aff4 883e 4909 65bd 41f4 bf3d 0f60 84be
000000c0: 7df9 fe3b c061 f83d b730 ce3d 0d5f 843e
000000d0: 77d9 e7bd 6759 8abe 6ff9 cbbc b104 fe3b
000000e0: 7db5 0fbe 66ac 9f39 ff5c 54bd 6bf7 b6bc
000000f0: 6d80 81be 14da 963e ab21 253d 4607 243e
00000100: e405 0bbe be57 93be 2d69 d83d a896 12be
00000110: f5bc 4abc 1a5a 7abe fb79 16be be0a 0d3e
00000120: 1d71 e0bd 70ea 81be 0c7a 163d ca9b 92be
00000130: 98b9 3f3d f3f0 113d 45dc c13d d5e4 04bd
00000140: b1d9 e33d 2344 41be 73d8 e23d 81b5 46bd
00000150: 1f37 153e 878c 093d f29c 903d ba2e 1a3e
00000160: bea1 5cbc 4fa5 403e 3229 8cbe 5749 233e
00000170: 7f9d 07be fd97 0ebd 1f83 37be 5be4 453e
00000180: d9f2 84be 9568 bf3c c2a4 9a3e 7500 a23c
00000190: 7c5f 203d 5256 d63d e1ea 533e b5e7 3c3e
000001a0: 2e71 4abd 413a cdbd 38d4 35be 14ce 9c3b
000001b0: 531b 56bc df46 713e 1b30 78be 711f dcbd
000001c0: d4ad 0b3d f3ad 87bd 55b2 59be 4280 793d
000001d0: 1dde 47bd f80c 82be 80e4 753b 726e 0c3c
000001e0: 945c c03c bff6 98be a1a4 af3d 96d7 8dbe
000001f0: d35b 313e 6ca9 093c 51d8 303e 1d28 86bc
00000200: 9fa3 233e 0160 12bc ef3b 0c3e 4e2c ad3d
00000210: 5353 78be c79c 3bbd 380e 31bd ef42 18be
00000220: 61a2 e5bd 0e6f 11bc b787 e3bb 68de 16be
00000230: a221 2f3d 2b26 c83d 5249 4c3e 1a1f 61bd
00000240: 7e91 9b3e cf5f b93b e699 e5bd dd76 9ebd
00000250: 2e58 553e c7a0 2e3e 144f e2bb 7176 8ebd
00000260: f870 50be d5ac 94bc 9fa0 3fbe 59c7 a7be
00000270: be0a 4d3e 25d2 24be 88a2 52bd 449e 1bbe
00000280: 5a75 393d 2120 2cbe 4711 a83d 9e24 593d
00000290: 9329 2ebe 2e44 b8be ff41 c03d 7081 6c3d
000002a0: 680f 7b3e d7ee 16be 6e9f a6bc ba08 c0bd
000002b0: 2adc f8bd 775c 60be b194 d4bd 9644 7cbe
000002c0: 4f79 92be 7f91 05bd 0649 b8bb 83c2 18be
000002d0: 13ec 91be 0403 6f3e 8b71 91be 884b 94be
000002e0: c933 0fbe 88da 1b3d 473f 67be 31d8 3f3e
000002f0: d4b3 66be 79e8 703e b0e6 8ebe 39ac c8bc
00000300: a505 783e 5c83 06be eda1 683e 9b36 69be
00000310: 6a40 82bd 7da8 7abc 34cb 28bd 4ef3 843e
00000320: 6466 aabd 9c8b a83e 9a6c 193d 8ee9 713e
00000330: 5eaa 2abc 9666 3b3b 4b12 fdbd 168f bb3c
00000340: 667c 17bd 2513 bfbd dc9a 4dbc 3ea6 e33d
00000350: c8a2 98bd e6f4 80be ff0b 76be c092 5fbe
00000360: 3ca2 a3be 50f8 abbc 15cc 3bbe af2a 33bc
00000370: a6d8 783d 62b8 243e 5573 093e 04c2 573e
00000380: 73b2 7c3d 41d1 353e 1f4d 103e f694 05bd
00000390: e82a f8bd 6932 63be 7cda 243e 7a67 e73c
000003a0: d53a 5c3d 621a 14be 97ca c1bd 5033 6fbe
000003b0: 1395 4f3e db6b 913d b4a5 293e 698e 85be
000003c0: 294b 753e 0710 183d 836f 82be 5360 ecbc
000003d0: 6327 9bbb ab1c 65be 9bd3 efbd 8d7f 91be
000003e0: 4ed4 7fbd da2a 363d 34d0 863d a788 71be
000003f0: 20e0 db3d dc40 443e 1b51 54be 8749 6bbe
0.047359757 0.21641257 -0.22020157 0.11475729 -0.1351675 -0.15130946 -0.25290704 0.06142732
0.07925834 0.06785111 0.15737103 -0.27810848 -0.23228927 0.14503531 -0.0761183 -0.060299616
0.14588256 -0.22181496 -0.19016458 0.17730471 -0.06370644 -0.030355424 -0.05857206 -0.14701016
-0.09805791 0.22606903 -0.2236982 0.27758384 0.23217478 0.17271397 -0.26104575 -0.22424997
0.18683437 -0.14864002 0.021267118 0.17789625 0.19846885 0.28661638 0.18067142 0.025056586
-0.25771353 0.14744817 -0.27760908 -0.043643292 0.2674918 -0.05591706 0.093727596 -0.25854537
0.007781206 0.12128019 0.10067885 0.25853768 -0.11320775 -0.27021334 -0.024899213 0.007752024
-0.14034076 0.0003045529 -0.0518465 -0.022334775 -0.25293294 0.29463255 0.04031531 0.160184
-0.13576466 -0.2877788 0.10566936 -0.14315283 -0.012374152 -0.24448434 -0.1469497 0.13773629
-0.10959075 -0.25374174 0.036737487 -0.28634483 0.046807855 0.035630178 0.09465841 -0.032444794
0.11125506 -0.18873648 0.11076441 -0.04851294 0.14571808 0.033581283 0.07061185 0.15056887
-0.013466297 0.1881306 -0.2737518 0.15945946 -0.13243674 -0.034812916 -0.17921112 0.19325392
-0.25966528 0.023365298 0.30203825 0.019775609 0.03915356 0.10465683 0.20695068 0.18447764
-0.049424343 -0.10020877 -0.17756736 0.0047853086 -0.013068038 0.23562191 -0.24237101 -0.107481845
0.034101322 -0.06624975 -0.21259435 0.06091333 -0.048795808 -0.2540052 0.003752023 0.008571254
0.023481645 -0.29875752 0.08576322 -0.27703542 0.17320184 0.00840221 0.17270018 -0.01637655
0.15980385 -0.008934022 0.13694738 0.08455716 -0.24250536 -0.04580381 -0.04322645 -0.14869283
-0.11212612 -0.008876575 -0.0069436687 -0.14733279 0.042756684 0.09772905 0.19949844 -0.0549613
0.3038444 0.005657173 -0.112109944 -0.07737515 0.20834419 0.17053519 -0.0069063995 -0.06956185
-0.20355594 -0.018148819 -0.18713616 -0.32769278 0.20023629 -0.16095789 -0.051424533 -0.15197092
0.04527793 -0.16809131 0.082064204 0.053013436 -0.17008047 -0.35989517 0.09387588 0.05774063
0.24517596 -0.14739548 -0.020339694 -0.093766645 -0.12151368 -0.21910273 -0.10379923 -0.24635538
-0.28608176 -0.03260946 -0.0056239394 -0.1491795 -0.28500423 0.23340994 -0.2840694 -0.28963876
-0.13984598 0.038050205 -0.22582732 0.18734814 -0.22529536 0.23526181 -0.27910376 -0.024496185
0.24220903 -0.13136047 0.2271802 -0.22774737 -0.06359942 -0.01529896 -0.041209415 0.25966877
-0.08320311 0.32919014 0.037457086 0.2362425 -0.010416595 0.0028595082 -0.12357005 0.022895377
-0.03698387 -0.093298234 -0.012549128 0.111156926 -0.07452923 -0.25186843 -0.24028014 -0.21833324
-0.31959713 -0.020992428 -0.1833957 -0.0109354695 0.060753487 0.16085961 0.13422902 0.21070105
0.06169362 0.17755605 0.1409192 -0.032612763 -0.12117559 -0.22187199 0.1609897 0.028247584
0.053767044 -0.14463189 -0.09462469 -0.23359418 0.20271711 0.0710065 0.16567117 -0.26085213
0.23954453 0.03712466 -0.25475702 -0.028854525 -0.00473492 -0.22374217 -0.117102824 -0.28417626
-0.06245833 0.04447446 0.0658268 -0.23587285 0.10736108 0.19165367 -0.20734064 -0.22977267

linear1.bias f4 [256]
00000000: d9a2 063d 19c1 8ebd b8cb 4a3e 37ef edbd
00000010: 1583 b9bd 8ec3 923d ddf5 29be 8e26 1fbd
00000020: cce4 06be 39eb 8dbe 1b57 3ebe 1985 94be
00000030: 8a51 f6bc 77de 553e c574 16bd 7d1a 1bbd
00000040: c916 903d df8d 773e 9c61 80be cd2e d43d
00000050: 07bd a63b ebbd 353e 415d 31be fab4 74be
00000060: aaac f53c ebf8 3bbd c68b 0dbe b988 113e
00000070: c37e 243d 932d cbbd 39be 69be 5478 61be
00000080: 4129 d03d 5549 433e c56e 78be e172 8bbd
00000090: 6db6 ab3d 614e 66be 4e34 bbbd 326f 15be
000000a0: 6402 43be 80ef 6fbd bffd 0fbe fadc babc
000000b0: d4ff 2dbe dc0a 93be a5dc 34be 4d4e 29bd
000000c0: 9f1a 48be 133e e8bd ff6f 1ebe c11d 32be
000000d0: f715 8ebe fb44 7ebe d3f0 2f3e 2859 e1bd
000000e0: 7bcf 293e b5a7 83bd c913 5fbe 11b4 42bb
000000f0: a8f4 3dbd 1e19 f5bd d31e 83be ad5a 17bd
00000100: f12c 403d 5b2f 2cbe 6e4d bdbd c0f1 85be
00000110: 92d3 863e 9ef5 26be 96a6 603d e6c3 36be
00000120: 2cc2 40be 7e5e 53be 3015 3bbe b175 a3be
00000130: 8541 38be ddf0 fcbd 721b 173e a807 5a3d
00000140: 5f5b 5abd 79c7 753e e2ba 2b3e b2b9 8d3e
00000150: 75d9 32be db09 463e fda2 b63c ef6c f0bc
00000160: 5f52 3c3e 1a29 3e3c b6d3 1b3d 25e9 6dbe
00000170: 47c3 2e3e f2de 88be 14bc 5bbe feed 733e
00000180: fece 81be 249f 8ebe 69d2 81be 04fb a3bb
00000190: 89c5 223d 4e16 af3d 1558 143e f7db 8ebe
000001a0: ba2f b6bd 5387 cabd 74c5 5f3e 1c3e 1a3e
000001b0: 493e 49be c271 edbd e5be 28be 39d7 733d
000001c0: d421 02be e579 00bd 0977 33be 4dc3 523c
000001d0: 386d eebd c757 8ebe b4cf ef3d c600 193e
000001e0: 1e87 39bd b560 b93d 31a5 51be b7e6 7cbc
000001f0: 4aa0 303e 071e 113e 44aa 87be 42b3 36be
00000200: 25e9 5b3e 740c 95bd 72ea f8bd 686e 863d
00000210: 701a 363d 21c2 1fbe ff7a 86be 41f3 45be
00000220: 713e 7e3e d97a 543e f9c0 623e f08a fa3c
00000230: 1b4b 07be 7277 b8bd 12f0 3d3e 8613 cabd
00000240: 3372 97be ed8d 9bbd df89 84be 80f8 dbbd
00000250: 133b 74be 7489 243e f82e 3c3e a80e a3bd
00000260: ec5a 70be 5bcb 313e 0a06 893d a0e2 3a3e
00000270: af12 123e c9e7 9dbe eeb9 57be 087a 183e
00000280: e76c 213e 97d9 66be e0cb e9bd 051a 8ebe
00000290: 6538 163e c71b c1bd 3c83 043d 0cc6 61be
000002a0: 6dde a3be 6771 de3c a325 2dbe 7c0b 893c
000002b0: 5f37 e6bd 25f1 38bd 10bb 8c3c c755 2b3e
000002c0: c7a2 f13d d2d2 a73d e808 413e 0761 973d
000002d0: e853 df3d f396 0fbd 254c 6cbd f8d1 9abc
000002e0: 1c58 ccbd 5be8 e9bb 9c94 19be e361 b13d
000002f0: 48e8 1ebd 8261 12bd 83c6 143e e8f2 893e
00000300: 03b3 d0bc ea74 213e a7ab 6fbe 0ecc 013e
00000310: cb66 21bb 5ce1 99be cc0c 39be c5d3 4fbd
00000320: 8824 8abd 1377 193e a4e3 71be b3f0 02be
00000330: 5827 dfbd cd63 72be 4718 9c3d ee72 a13c
00000340: 0724 a4be 6a38 2e3d 2347 ff3d 98be a23d
00000350: ab86 86be 5942 3d3e ef15 503e 83d2 873d
00000360: d3e8 583e ae1a 9fbe b75c 81bd b621 f33b
00000370: 32c8 203e 4439 09bd c877 773d e9e5 a9bc
00000380: ccc7 29be 19f3 a7be d124 1bbe 4c58 303c
00000390: 89dc 2b3d 422f 2cbe f8ba 81be 623a 6e3e
000003a0: 9a56 87be 762e 1d3d 0ce7 17be 8cee 80be
000003b0: 5f38 d63c ae89 963d 4238 9e3c 537d b03d
000003c0: 2e56 1c3e 444e 86be 8dea 3cbd 84b4 0c3e
000003d0: e28c 86be ee81 f83d 9494 4ebe 4709 50bd
000003e0: c8bf 75be 651c fd3c bc12 253e a558 813e
000003f0: 2ad5 3dbe 6efb 173e 0064 8d3e e988 d13d
0.032870147 -0.06970424 0.19804275 -0.11617892 -0.09058205 0.07166205 -0.16597696 -0.038855128
-0.13173217 -0.27718523 -0.18587916 -0.29007795 -0.030068178 0.20885645 -0.036732454 -0.037867058
0.07035596 0.24175213 -0.2507447 0.10360489 0.005088452 0.17748229 -0.1732073 -0.23897162
0.02998956 -0.045891684 -0.1382285 0.14212312 0.040159952 -0.09920802 -0.2282647 -0.22018558
0.101641186 0.19070943 -0.24261005 -0.06809021 0.08384404 -0.22490837 -0.09140836 -0.14593199
-0.1904388 -0.058578014 -0.1406164 -0.022810448 -0.16992122 -0.28719223 -0.17662294 -0.04133444
-0.19541405 -0.11339965 -0.1547241 -0.17394163 -0.27751133 -0.24831001 0.17181711 -0.11003333
0.16583054 -0.06428472 -0.21784891 -0.0029709379 -0.0463759 -0.11967681 -0.25609455 -0.03695171
0.04691786 -0.1681494 -0.09243284 -0.26161003 0.2633329 -0.16304633 0.05484637 -0.17848167
-0.1882407 -0.20641515 -0.18269801 -0.3192573 -0.17993744 -0.123506285 0.14756563 0.053229958
-0.053309795 0.24001874 0.16770509 0.27680737 -0.17465766 0.19339697 0.022294516 -0.029348819
0.18390797 0.011606479 0.0380437 -0.23233469 0.1706668 -0.26732594 -0.21458465 0.23821256
-0.25353235 -0.2785579 -0.25355843 -0.0050042886 0.039739165 0.08549176 0.14486726 -0.27902195
-0.08895822 -0.09889092 0.21852666 0.15062755 -0.19652666 -0.11593963 -0.1647907 0.059531424
-0.12708217 -0.031366248 -0.17525877 0.012863946 -0.116419256 -0.27801344 0.11709538 0.14941701
-0.045294873 0.090516485 -0.20473172 -0.015435866 0.17248645 0.14171611 -0.2649709 -0.17841819
0.21475656 -0.07277766 -0.12154092 0.06564027 0.044458807 -0.15601398 -0.26265714 -0.19331075
0.24828507 0.20749988 0.22143926 0.030583829 -0.13212244 -0.090071574 0.18548611 -0.09867005
-0.29579315 -0.075954296 -0.25886437 -0.10740757 -0.2385066 0.16068059 0.18377292 -0.0796178
-0.23472184 0.1736273 0.06690605 0.18250513 0.1426494 -0.308409 -0.2106702 0.14890301
0.15764199 -0.22543941 -0.11415839 -0.27754226 0.1466995 -0.09429126 0.032351717 -0.22048205
-0.32005635 0.027153684 -0.16908889 0.016729109 -0.1124103 -0.04515185 0.017179042 0.1673194
0.117986254 0.08194508 0.18851054 0.07391553 0.10904676 -0.035056066 -0.057689805 -0.018898949
-0.09977743 -0.0071382946 -0.14998096 0.086612485 -0.03879574 -0.035737522 0.14528851 0.26943135
-0.025475984 0.15767255 -0.23405324 0.12675497 -0.002462792 -0.30054748 -0.18071288 -0.05073907
-0.06745249 0.1498683 -0.23621994 -0.12787132 -0.10896176 -0.23670883 0.07621818 0.019708123
-0.32058737 0.04253427 0.1246474 0.07946509 -0.26274619 0.18482341 0.20320867 0.06631949
0.21182565 -0.31075042 -0.06316512 0.00741979 0.15701368 -0.03350188 0.060416967 -0.020739513
-0.16580123 -0.32802656 -0.15150763 0.010763239 0.041958366 -0.16814902 -0.25337958 0.23264459
-0.2643326 0.038374387 -0.14834231 -0.25181997 0.026149927 0.07350479 0.019313935 0.08617654
0.1526725 -0.26231587 -0.046122123 0.13740736 -0.2627936 0.12134157 -0.20173866 -0.050790098
-0.2399894 0.030897329 0.16120428 0.25262943 -0.18538347 0.14842007 0.27615356 0.10231192

linear2.weight f4 [4, 256]
00000000: 3362 9f3d aa8d 753d b507 8ebd 0297 0fbd
00000010: b834 78bd e95d c3bc aff6 e5bc 4c6a 8ebd
00000020: f9c7 a8bd 0e9a 423d 85fa 303d 8936 f33b
00000030: 4dd0 77bc b51c 943d 6ef8 1cbd c393 b1bd
00000040: f1eb 93bd 8f5e 1cbc df1a 40bd 93ec 023d
00000050: 17af c8ba a9b6 893d bd58 36bd 1348 8e3a
00000060: 941e 1d3c d0ec 28bc cdb0 8fbc ba93 1abb
00000070: f476 a73c 30ee 3a3c 288c e3bc b27d d93b
00000080: 74e1 fbbc 3ab0 863c a53d 003d 5b80 82bd
00000090: f391 003d 564d b43d 1608 8b3d cc20 0e3d
000000a0: abeb d3bd 9539 bfbc cc80 c0bc f6f3 943c
000000b0: 1663 073d 33a9 df3c 5fcf 06be 56ab 0b3d
000000c0: 9c79 9b3c 2bbb 14bc a21b 0fbd 80f7 4ebd
000000d0: 78d5 1d3c 822c cbbb 8c59 dbbb b1f8 f3bc
000000e0: b309 7fbd 75ce a93a 2ab8 95bc 6470 8ebd
000000f0: 2e61 e13c 2706 6fba ccda d0bc afa3 80bb
00000100: 4da5 043d ee60 6e3d 0b97 41bc eecf 60bd
00000110: ada7 b2bd 08fd 10bc 6a81 1dbd cd68 2abd
00000120: 0275 42bd bc6a 943c 2c81 7d3d 7585 a3bb
00000130: 1e7a 1c3c a9c0 79bd f042 5dbd a068 5a3b
00000140: 5034 073b a698 a5bd 8df6 ea3c d84d 3c3c
00000150: 9d1f e73d ca52 b03b cf94 643d a483 b8bc
00000160: 7db6 90bc 0135 aabc c122 bbbd d784 553c
00000170: 62ed 2d3c 4fbc 0cbd 905a 6cbd 77a4 50bd
00000180: 1456 b3bc 6484 89bc e68b 14bd 93f9 9cbd
00000190: ac09 22bc 72a7 383c d3c7 6dbc 8600 323d
000001a0: bae1 a4bc f352 e13c 1a11 7b3c 2a15 12bb
000001b0: be41 c33d 2ec4 67bb 0af5 6abd 11eb 953c
000001c0: 7a90 82bb 1410 27bc 5914 f83b 1878 c13d
000001d0: b065 dc3c baec ccbc 1f87 84bc 32d4 5c3c
000001e0: 74f0 0abd 28a6 56bc 6cb0 27bc ed08 a33d
000001f0: 5708 bc3b 35c1 19bd 36f3 8a39 5819 933d
00000200: 95e9 f9b9 b1e3 ac3b 269f 28bd bc87 bc3c
00000210: 7ce9 25bc 27fd 1d3d 8a3a 95bd 866a 15ba
00000220: 62d9 9dbd 8fe2 e63b eaf2 0c3d 6fae 3dbd
00000230: caf4 53bb 0c32 183d 7994 63bd 07c8 273e
00000240: 8138 663d 73e1 7dbc 6a4d 473d 4ae6 ccbc
00000250: 652d 593d 44a1 693d 3fef 22bd 986a 743c
00000260: d1ad cabd d002 8a3c 4673 acbd a25b adbd
00000270: 3593 adbd e032 0ebc 7055 833d 9477 88bd
00000280: ae5a 063c 460d 34bd 1f26 87bc 6eef 773d
00000290: 1a15 26bd 5a1b 1bbc 9276 28bd d31a a5bd
000002a0: 91a1 8fbd 9af5 09bd c750 7fbb 0a57 063c
000002b0: 71c6 aebd f142 3cbd 39ba 2e3d 1fd4 61bd
000002c0: 303b 42bd e765 d13b fa6c 123c 5e7b 59bd
000002d0: 26d6 6fbd 954b 963c bde7 483b 1ad8 103b
000002e0: 512f a23c 2d83 1fbd c8db 91bc 7358 88bd
000002f0: c77f 9bbd 7355 7a3c aa66 5dbc b3ab ccbd
00000300: 6329 d83c 7e37 65bd 48ff 263c f7b5 81bc
00000310: 6a12 40bc 80a9 483c 37af 19bd d414 30bc
00000320: cc1b a93d ac4e 34bc e62d 10bc c6df 84bc
00000330: f710 a3bc 18a5 393c e669 ae3c ca6e 8dbc
00000340: 94f8 5bbd f83b 6b3d 70dd 093d e838 423c
00000350: 008f 773b 0503 ecbc b132 573d d7fe f3bb
00000360: 2b62 53bc 564c ddbc 4c21 5ebd 32c4 6ebd
00000370: c88a a13c f0c6 063d 04f1 92bc 8d1a 8abb
00000380: 67cd 37bd 2b52 523b aa15 313d 8ccf e9bd
00000390: e2d2 373c 72d1 5cbd 5b73 ed3c c1dd b83b
000003a0: 20a9 763b de4e a8bd 0a39 eebc 76eb 36bd
000003b0: ed34 7dbc d90e e93c 7c9e 593b e567 a13b
000003c0: 1e97 24bd 7a12 46bd 8628 1a3c e173 043d
000003d0: 4c1e 5abd 77b7 b73b 558c a7bb c071 25bb
000003e0: c04f 8abb 9bf8 85bc d425 083d 1ec7 97bd
000003f0: 356d 33bd 829a c43d 4379 9ebb aea1 0abd
0.07782402 0.059949555 -0.06935064 -0.03505612 -0.06059715 -0.02384849 -0.02807173 -0.06953868
-0.08241267 0.0475102 0.043207664 0.0074222726 -0.015125346 0.07232038 -0.03832286 -0.086707614
-0.072227366 -0.009544029 -0.046900626 0.031963896 -0.001531097 0.06724293 -0.04451822 0.001085522
0.00958981 -0.010310367 -0.01754036 -0.0023586587 0.020442463 0.011409327 -0.027776793 0.0066372985
-0.030747153 0.016441453 0.03130879 -0.06372138 0.031389188 0.08803813 0.06788652 0.034699246
-0.103476845 -0.023342887 -0.023498915 0.018182736 0.03305348 0.02730236 -0.13165043 0.034098946
0.018978886 -0.009077827 -0.034938462 -0.050529003 0.009633414 -0.006200374 -0.0066940244 -0.029781671
-0.06226511 0.0012955206 -0.018276293 -0.069550306 0.02751216 -0.0009118043 -0.025494955 -0.0039257626
0.032384206 0.058197908 -0.011815797 -0.054885797 -0.08723388 -0.00884939 -0.038453497 -0.041603852
-0.04747487 0.018117301 0.061890766 -0.0049902746 0.009550599 -0.06097475 -0.054018915 0.0033326522
0.0020630546 -0.08085756 0.028682018 0.011493169 0.11285327 0.005380963 0.055805977 -0.022523709
-0.017665142 -0.020777227 -0.09137488 0.01303216 0.0106156785 -0.034359273 -0.057703555 -0.050938096
-0.021891631 -0.016786762 -0.03626623 -0.0766479 -0.009890001 0.011270391 -0.014512974 0.04345753
-0.020127166 0.027505374 0.015323902 -0.0022290447 0.09534024 -0.0035364735 -0.057362594 0.018300565
-0.003984508 -0.010196704 0.007570785 0.09446734 0.026903957 -0.025015224 -0.016177712 0.013478326
-0.03392072 -0.013101138 -0.010234933 0.07960687 0.005738299 -0.037537772 0.00026502617 0.07182568
-0.00047667013 0.0052761664 -0.0411674 0.023013942 -0.010126468 0.038571503 -0.07286556 -0.0005699772
-0.07707478 0.007046051 0.03441135 -0.04630893 -0.003234195 0.037157103 -0.055561516 0.16384898
0.05620623 -0.015495646 0.048657812 -0.025012154 0.053021807 0.05703856 -0.039778944 0.014917992
-0.09896434 0.016847044 -0.08420424 -0.08464743 -0.08475343 -0.008679122 0.0641278 -0.06663433
0.008200331 -0.04395797 -0.01649767 0.060531072 -0.040547468 -0.00946697 -0.041128702 -0.08061757
-0.07013238 -0.03368149 -0.003895806 0.008199463 -0.085339434 -0.045962278 0.042658065 -0.055133935
-0.047419727 0.0063903215 0.008937115 -0.053096168 -0.058553837 0.018346587 0.0030655705 0.0022101463
0.019797953 -0.03894346 -0.017804995 -0.06657495 -0.07592731 0.015279162 -0.013513247 -0.099936865
0.026386922 -0.055961125 0.0101927 -0.015833838 -0.01172314 0.012247443 -0.037520614 -0.010747153
0.08257255 -0.011005085 -0.008800006 -0.016219985 -0.01990555 0.011330865 0.02129073 -0.017264742
-0.05370386 0.057430238 0.033658445 0.011854388 0.0037774444 -0.028810034 0.052538577 -0.0074461508
-0.012901823 -0.027013939 -0.054230973 -0.058292575 0.019719496 0.032904565 -0.01793719 -0.004214591
-0.04487362 0.0032092433 0.04323355 -0.114165395 0.011219712 -0.05391068 0.02898567 0.0056416695
0.0037637427 -0.08218168 -0.029079933 -0.044658147 -0.015454513 0.028449463 0.0033206036 0.0049257153
-0.04018318 -0.048357464 0.009409076 0.032337073 -0.05325155 0.0056065875 -0.0051131644 -0.0025244802
-0.0042209327 -0.016353896 0.0332392 -0.074110255 -0.04380532 0.095997825 -0.004836233 -0.033845596

linear2.bias f4 [4]
00000000: ed0d fbbc cff7 b9bc 22c1 98bd 9481 78bd
-0.030646289 -0.022701172 -0.07458712 -0.06067045
